torch/results/model.pth (torch, 89851 bytes, 8 tensors)

conv1.weight f4 [10, 1, 5, 5]
00000000: 54a6 a93c 1667 8b3e be27 213e 1a7e 3a3e
00000010: 95be a43e cf3b ae3e 805a cf3e 10e3 953e
00000020: 0ce5 1b3e c845 59bd e745 5bbe 3a53 fbbd
00000030: 6d54 af3d d6b9 ddbc 9434 4fbd 50b1 11be
00000040: 79e6 b6be 76d8 b1be 828a 8bbe ce75 72be
00000050: 1f3d 03bc dd79 8dbe 91cb bdbe 94c2 81be
00000060: ec22 eebd 72ec bf3d 8b4d 3a3e 563d b63e
00000070: 29e8 d53d dbd3 99be 850c 46be 0b1c 0fbe
00000080: affb bd3e 7459 f03e 8e1d 253e 754a 5abe
00000090: 0a38 5ebd 70a3 a7ba 034f f53e 7bf5 be3e
000000a0: 91b9 bcbe f5be 6dbe 4283 8dbe 5886 00be
000000b0: e45f 6e3e bf42 61be 9c4f 92be 18ba b4be
000000c0: 5ce8 89be d58b 863d 7dde 563e 9d2c a53e
000000d0: 7326 083c 10f4 f4bd e6e5 733e 31a2 bfbd
000000e0: fadf 8c3d eccf f53d a5cf 65bd ad6d 613e
000000f0: f85d 1cbe e1e4 6f3d 1f67 92bb ad4e 433e
00000100: f1d3 13be fae6 41be 2f79 c33d 4bb9 693d
00000110: 0034 8b3e dd74 1bbe e362 c1bd 26ac 0a3e
00000120: fac0 413e fe3d 83bc 2c82 d1be 2ec0 753c
00000130: 237d 08bf 6564 07bf cd75 a2bd 8c25 ac3c
00000140: 1faf 003f cc46 81bc 6092 15bf d251 0b3d
00000150: e658 7c3b 060e 023f cc4a eb3e 2fc5 31be
00000160: c6da 9f3c 5ae6 273d 1d56 89bc 7a6c a63d
00000170: 896b bb3c cde9 a0bd 42f1 e8bd 8a9a 2cbd
00000180: bae8 ba3e b94f c33d 8dad a43d f528 333e
00000190: c92e 9fbe 202a b7be 2cd0 5f3c 890e 7b3d
000001a0: be46 973e 9af4 e8bd e17c 693e 9758 d53e
000001b0: ede4 a13e 0d69 1cbe efbf 803e fc98 c73e
000001c0: 01d9 c83d 9ece 903d 7b30 84be 0c1a 023e
000001d0: e89c d4bd ed83 71be 241c c73d 1c16 0dbe
000001e0: 77f4 83be 575e f4be 1a7d d6be 686a 68bb
000001f0: 8e90 713e d038 2f3e 825e dd3c 62f0 37bc
00000200: e78a a43d 6ab3 f63a b102 ca3d 6e0b 903e
00000210: a91f 583e 431c 363e a873 23be 7040 65be
00000220: b202 4bbe e06b d23a 0652 f6bd b5c7 edbd
00000230: 1d3b a73c 3d07 8ebe b090 b93d 47b9 b53d
00000240: 6e3d 343e 0de5 953e 271a 8abd 3c04 4e3e
00000250: 5fc6 ab3d 6e15 af3a 69bd 99be 413f c2be
00000260: cc86 99be a5e0 403c f18e 063e cfec 04bf
00000270: 3b4d 7dbe 1e8f a23d 298d 2b3e d44b d93e
00000280: f45f dbbe 72ad b9bc 6313 4bbd 82cf 863e
00000290: 002a 3c3e 76eb 7bbe 4e60 3bbe 6d20 dc3d
000002a0: 0307 7c3e 4e5a 113e 89e2 19bd 4a18 bbbc
000002b0: 5e6a 303e 4524 293e 1bca 093e e15e b63d
000002c0: e737 b33d 0a6c 3d3e 55de 5abe 646e dcbd
000002d0: a1fb 06be 4e7b e13a 36a0 d9be c460 0fbf
000002e0: 26bc c6be 3b2f c9bd bc50 92bc bad1 59be
000002f0: 24a3 25be de73 223c 95f5 5c3e 2495 3ebe
00000300: fdec 853e b494 f83e 5e74 013f bc8f 24bd
00000310: 9f19 233e 8046 0e3e e2a9 dd3e 32d4 60bc
00000320: 2190 203e d80b 693e 2c00 e9bd 2ea3 0bbe
00000330: 3b17 58be d8f4 953e e3ab 8c3e cff0 5bbd
00000340: 1525 dcbe 5090 b1be 7190 ab3e 3c0a c83e
00000350: 502c fbbd 978c babe 6fa0 d4be a5a9 ab3e
00000360: ef40 073d 9a55 133e 6ce3 64be 9d3f 44be
00000370: 6927 8abb cee2 4e3d 8eca 6fbc b8c4 bebc
00000380: 1f33 5a3d 7475 023e 3ba9 bebc ddf0 153a
00000390: fc00 a93e d975 fd3d d068 cbbe 7565 79bd
000003a0: 624d 0abe 840a 443e 6221 9f3e 39bd 08bf
000003b0: 21c4 1fbf 6d70 edbe 49c1 28be 2f59 403e
000003c0: 624a bdbb 049a abbe 2c02 2fbf 4570 10bf
000003d0: 2a52 d1be 03f0 f43e 8006 a43e 5ecb f93c
000003e0: b078 1ebe 6753 8cbe
0.020709194 0.27227086 0.15737817 0.18212166 0.32176653 0.34030005 0.40498734 0.29274797
0.15224093 -0.053045064 -0.21413384 -0.122717336 0.08561025 -0.027066153 -0.05058725 -0.14227796
-0.35722712 -0.3473546 -0.2725411 -0.23677751 -0.008010178 -0.27632037 -0.3706937 -0.25343764
-0.116277546 0.0937127 0.18193643 0.3559367 0.10444672 -0.30044445 -0.19340713 -0.13975541
0.37106082 0.46943247 0.16124555 -0.21317466 -0.05425266 -0.0012789797 0.47911844 0.37296662
-0.36860326 -0.23217376 -0.27639204 -0.12551248 0.23278767 -0.21998118 -0.28576362 -0.35298228
-0.2693509 0.065696396 0.2098331 0.322606 0.008309948 -0.11960614 0.23818168 -0.093571074
0.06878658 0.120025486 -0.05610623 0.22014494 -0.15270221 0.058567885 -0.0044678594 0.19072981
-0.14436318 -0.18935767 0.09544598 0.057061475 0.2718811 -0.15181299 -0.09442689 0.13542232
0.18921271 -0.016020771 -0.40919626 0.0149994325 -0.53315943 -0.52887565 -0.07932625 0.021013997
0.50267214 -0.015780829 -0.58426476 0.034013577 0.0038505136 0.5080265 0.45955503 -0.17360376
0.019513499 0.040991165 -0.016764695 0.08126159 0.022878425 -0.07857094 -0.11374141 -0.042139567
0.3650568 0.0953669 0.08040915 0.17496093 -0.31090382 -0.35774326 0.013660472 0.06129316
0.2954616 -0.11374779 0.22801544 0.4166915 0.3161997 -0.15274449 0.25146434 0.38983905
0.09807015 0.07070659 -0.25818238 0.12705249 -0.1038149 -0.23585482 0.09722164 -0.13777965
-0.2577245 -0.47728226 -0.4189232 -0.0035463814 0.235903 0.17111516 0.027022604 -0.011226745
0.08034306 0.001882178 0.098637946 0.2813372 0.21105827 0.17784218 -0.15962088 -0.22387862
-0.19825247 0.0016053878 -0.120273635 -0.11610357 0.02041393 -0.27739897 0.090608 0.088732295
0.17601559 0.29276314 -0.067432694 0.20118803 0.08387446 0.0013357827 -0.3002732 -0.37938884
-0.29985654 0.011772309 0.13140465 -0.5192384 -0.24736492 0.07937454 0.16753067 0.42440665
-0.42846644 -0.022665713 -0.049579035 0.2633019 0.18375397 -0.2460154 -0.18298456 0.10748372
0.2461205 0.14194605 -0.037569556 -0.02283873 0.17228076 0.16517742 0.13456003 0.089048155
0.08750897 0.18498245 -0.21373875 -0.10763243 -0.13181926 0.0017202885 -0.42505044 -0.5600703
-0.3881542 -0.098234616 -0.017860763 -0.2127141 -0.16175514 0.00991532 0.21578057 -0.1861158
0.2615737 0.4855095 0.5056819 -0.04017614 0.15927742 0.13894081 0.43293673 -0.013722466
0.15679981 0.22758424 -0.11376986 -0.13636467 -0.21102612 0.29288363 0.2747489 -0.05369645
-0.4299704 -0.34680414 0.33508638 0.39070308 -0.12264311 -0.36435387 -0.4152865 0.33527866
0.03302091 0.14388123 -0.2235238 -0.19164892 -0.004216124 0.050509267 -0.014635695 -0.023287162
0.05327141 0.12740117 -0.023274055 0.00057197904 0.33008564 0.12375993 -0.39728403 -0.060887773
-0.13506082 0.19144636 0.31080157 -0.5341373 -0.62408644 -0.46374837 -0.16479982 0.18784021
-0.0057766894 -0.33515942 -0.6836269 -0.5642131 -0.40883 0.47839364 0.3203621 0.03049248
-0.15475726 -0.2740738

conv1.bias f4 [10]
00000000: 8b06 7ebe 3d0a 71be a302 63bd 9afa 1bbd
00000010: f995 93bb a051 6bbe cacc 9cbc 1a67 a4bd
00000020: 1809 69be fe29 f9bd
-0.24807183 -0.23539062 -0.055422436 -0.03808079 -0.004503962 -0.22980356 -0.01914062 -0.080274776
-0.22757375 -0.121662125

conv2.weight f4 [20, 10, 5, 5]
00000000: 6cf5 973d b51f e7bd a834 4d3b 15cd a1bd
00000010: 2443 9abd b0ce 57bd f34c b7bd 431d a9bd
00000020: 8fa3 a6bd 96fd a0bc fba3 c13b 3b3d 09be
00000030: 8cea 0bbe 3965 153d 4152 383d deb9 f63c
00000040: cd5a 1cbe 762c eb3c 0284 a6bc d526 dfbd
00000050: 95de 17be df63 b1bd dcdc e2bd 83a7 78bd
00000060: 364a 42be 268f 18bd 8052 a7bd 8272 e3bd
00000070: ce10 aebd b4ab d13c 7c3f 503d fbbc 30be
00000080: 77c1 30be 6fe6 d2bd 2f92 20be 6c44 17bd
00000090: 3aa1 17be 4bc6 28be cdc1 e2bd 3086 0abe
000000a0: 0cef cebd f4db 22be 3ab4 08be 82f3 31be
000000b0: 0f17 f5bd a088 35be 7c68 e7bd d1d8 0bbe
000000c0: 60a8 7bbd 5c43 db3d 2368 043e a65b b53a
000000d0: c406 98bc fd1a 1e3d 439b 133e 1d11 033e
000000e0: 57a9 e5bc 440f a5ba 734f f63c 71d1 af3d
000000f0: 32fd d23b 4a42 87bd 89dc 8f3d 635c aa3d
00000100: d685 863d e318 6dbd 29e4 af3d b3fe 0f3d
00000110: 386c 933c 58b0 26be b9e4 18be 2317 3ebe
00000120: 866b 9fbd 9cd4 44bd 7338 01bc 98b3 27bd
00000130: cc85 abbd 3d2e 39bc b4bf d8bd eedc a5bd
00000140: 5502 9bbc 32cb 34be d649 73bb 311f a0bd
00000150: b8f2 94bd fbe4 ae3a 580d b2bd 8ea3 3ebc
00000160: 9662 2bbd 4e70 b3bd 3ca2 3cbd 90e1 7ebd
00000170: fdb4 3dbd 10d2 4dbd 5150 44bd 5da7 12bd
00000180: ae61 33be 5277 c8bd bf7f 02bc 7490 9a3d
00000190: aa6b 3f3c 93dd eabd 1f84 1fbe 556f e2bd
000001a0: cee8 78bd 78db 693b b69b 4fbe 1871 1fbe
000001b0: b11e 0bbd 36ac 4e3d f954 183e 6325 04be
000001c0: ab44 81bd 6989 163e 1025 6b3d 77a4 333d
000001d0: a830 ffbc 8ce1 983c 43e9 2a3e 3680 f9bb
000001e0: 83a2 e5bd 4e18 2a3d ffbf 09be 7921 76bd
000001f0: 7ac6 a1bd 2621 f0ba e446 8dbd 8c96 9ebc
00000200: 70e8 973c 5cdf f33b 1084 c9bc d6b2 adbd
00000210: 2e8d 4abd b9c0 04be a7c8 12bd 8b91 e6bd
00000220: 626c 17be 1335 88bb e59e 83bd bcf7 9cbd
00000230: c9d4 dfbd bd23 61be a84c 24be 896c debd
00000240: ab4c 993b e75b 98bd 6e88 96bd db3e 6c3c
00000250: ae4a d33d d256 05bd fe8d b43d ab15 643e
00000260: e9d9 653d 009a 50bd a9eb cebd e638 593e
00000270: 5911 cf3d 7a2a 943e fd03 ba3c 8133 303e
00000280: 96ff 373e 90e2 703e 6ade d43d da2c b63d
00000290: 4bb1 5e3e e061 e03d 32c5 653d a1bc 1a3d
000002a0: 7b5c 443e 86b8 493d 4ac3 663d bbc0 6b3d
000002b0: 01de 8d3e 6460 303e b843 2fbe 46f9 a4bd
000002c0: d11d e2bd 3d73 b43c 4592 36be f2be 86bd
000002d0: ab4e f6bd 251a 3abd 1d44 eebc 47c7 9ebc
000002e0: 590a f8bc 8aa3 bebd 018c 88bd 181d 27bd
000002f0: fb04 e53d b00e 643d 6d07 673c 93b8 98bd
00000300: 1eeb 99bd 616c c8bc e47f b0bb f367 0abe
00000310: a7ae b3bc 62a0 21be f2ef 00be 36ae f83d
00000320: 4557 9d3e 9dd0 923d b664 0e3d 94fa c9bd
00000330: 9444 05be 4ffc e93d f0e1 d23d b93f 0f3e
00000340: f6b6 ad3d 1d88 003e 0e45 7f3e 81c6 df3d
00000350: 36df 6f3d ff18 b73d 7a55 d83d 2c0b 183e
00000360: 60a4 a3bc 5680 303d 4b85 0aba 5df2 ca3d
00000370: 7d29 4c3e 5da5 0a3e f645 f23d f7fe 4e3e
00000380: 9334 673d 0258 383b 173b cf3d ef74 4c3d
00000390: 08cf cb3d 3eb4 94bc 61d7 b93d 79f6 903d
000003a0: beed 16bd 12eb 4ebd cf15 e7bd 3893 5c3d
000003b0: 55f6 e3bc cc8b e2bc ad41 10be 3885 11be
000003c0: 4f52 b8bd 46c0 46bd 8a4d e8bd 6923 49be
000003d0: e850 36bb 64d2 43bc 6d16 a8bd 94ac a0bc
000003e0: 49fd 703d 9512 c43d 62b5 c2bd 9f09 a5bc
000003f0: 2b83 2d3d 9922 81bd f3c9 07be c64d 70be
0.074198574 -0.112853445 0.0031311903 -0.079004444 -0.07532337 -0.052687347 -0.08950224 -0.08257534
-0.08136665 -0.01965217 0.0059094406 -0.13402264 -0.13663691 0.036473487 0.04500032 0.030117925
-0.15269013 0.028707724 -0.020326618 -0.108960785 -0.14831002 -0.08661627 -0.11077282 -0.060706627
-0.18973622 -0.037245892 -0.081700325 -0.11105825 -0.08499299 0.02559457 0.050841793 -0.1725959
-0.17261301 -0.10297858 -0.15680765 -0.036930487 -0.14807597 -0.16481893 -0.11072121 -0.13527751
-0.10104188 -0.15904218 -0.13350001 -0.17378047 -0.11967289 -0.177279 -0.11299226 -0.13656928
-0.06143987 0.10706207 0.1293035 0.0013836517 -0.018557914 0.038599957 0.14414696 0.12799497
-0.02803485 -0.001259305 0.030067181 0.0858487 0.0064388746 -0.066044405 0.070244856 0.083184026
0.06568496 -0.057885062 0.0858844 0.03515501 0.017995939 -0.16278207 -0.14931001 -0.18563513
-0.0778418 -0.048054323 -0.007886994 -0.04094276 -0.08375129 -0.011302528 -0.105834395 -0.080987796
-0.01892201 -0.17655638 -0.0037122867 -0.07818449 -0.072728574 0.0013343388 -0.08693951 -0.011635674
-0.041842066 -0.08761655 -0.046053156 -0.062226832 -0.046315182 -0.05024916 -0.04792816 -0.03580414
-0.1751773 -0.097883835 -0.007965027 0.075470835 0.011683384 -0.11468043 -0.15577744 -0.11056391
-0.060768895 0.0035683792 -0.20274243 -0.15570486 -0.033964816 0.050457202 0.14876164 -0.12904887
-0.063119255 0.14700855 0.057408392 0.043858018 -0.03115113 0.018662237 0.16690545 -0.007614161
-0.11212637 0.041527085 -0.13452147 -0.060090516 -0.078991845 -0.0018320426 -0.06898287 -0.019358896
0.018543452 0.007442398 -0.024599105 -0.08481376 -0.049451046 -0.12964143 -0.03583589 -0.11258229
-0.14787439 -0.0041567176 -0.06426791 -0.07664439 -0.109292574 -0.2198629 -0.16044867 -0.10860545
0.004678329 -0.07439404 -0.07350241 0.014419283 0.103169784 -0.0325535 0.08816145 0.2227389
0.05611602 -0.050928116 -0.10103542 0.21213111 0.10110731 0.28938657 0.02270698 0.17207147
0.17968592 0.23523927 0.103939846 0.088952735 0.2174732 0.10956168 0.056096263 0.037777547
0.19175903 0.04924824 0.056338586 0.05755685 0.27708438 0.1722427 -0.17115676 -0.08055358
-0.11040843 0.022027606 -0.17829235 -0.06579389 -0.120267235 -0.04543509 -0.029085213 -0.019382132
-0.030278372 -0.09308536 -0.066673286 -0.04079923 0.111825906 0.05567807 0.014100892 -0.0745708
-0.07515548 -0.024465742 -0.0053863395 -0.13516216 -0.021933867 -0.15783837 -0.12591532 0.12142603
0.30730644 0.07168696 0.034764014 -0.09862247 -0.13014442 0.11425077 0.102970004 0.13989152
0.08482163 0.12551923 0.24928686 0.109265335 0.05856248 0.089403145 0.10563178 0.14848012
-0.019975841 0.04309114 -0.00052841444 0.099095084 0.19937702 0.13539644 0.1182975 0.20214449
0.056446623 0.0028128629 0.10118692 0.049916204 0.099515975 -0.018152352 0.090742834 0.07078261
-0.036847822 -0.05051715 -0.112834565 0.053851336 -0.027827421 -0.027654551 -0.14087553 -0.14210975
-0.09000074 -0.04852321 -0.113429144 -0.19642414 -0.002781922 -0.0119520165 -0.082074024 -0.019613542
0.0588353 0.09573857 -0.09507252 -0.02014619 0.04236142 -0.06305427 -0.13260631 -0.23467168

conv2.bias f4 [20]
00000000: 00f1 be3d e201 11bd 0bd2 aebc 29d1 813c
00000010: 47fe cabd 22a8 09bd 8bfd 713d bb20 9fbd
00000020: df80 7cbd 36b7 1bbc a02f b6bd 705d 32bd
00000030: 1990 f3ba 86e5 723c c4f3 21be e088 ccbd
00000040: 9df8 13bd 9d5c 95bd 9419 a8bc 30a5 773c
0.09323311 -0.035402186 -0.02134039 0.015846806 -0.09911781 -0.03360761 0.059079688 -0.07769915
-0.06164634 -0.00950413 -0.088958025 -0.04354614 -0.0018582373 0.01482523 -0.15815645 -0.09987044
-0.036125768 -0.07293055 -0.02052001 0.015115067

fc1.weight f4 [50, 320]
00000000: 1fb4 1cbd 8376 6fbc 404b 293e 9e2f 063d
00000010: f599 2ebb db5f 17bd 1524 81bb df84 253c
00000020: 4bbe bdbd 67cb abbd 0c4c 9abc e8b3 d0bc
00000030: 2780 aa3d 59f4 e13d e913 563d 4151 59bc
00000040: 5b75 6dbd 4cf4 2cbd 6085 883d 2589 e23d
00000050: 0615 f4bc 76f6 febc a853 093d 6144 873d
00000060: 62f1 1b3d eca8 46bc 5bcd afbc df3f b03d
00000070: f5f5 00be 17f5 19bd 7bb7 ccbc 4eac e83b
00000080: b7b1 a6bd 8e1f b43b 077d 203d 5625 be3d
00000090: ca54 79bd 65cd 5ebd 59cc dabc 6624 283d
000000a0: f795 ca3b aff1 343a 26ca 713d 5c9d 40bd
000000b0: 18d1 62bc 8165 993d b1fe a73d b469 1f3d
000000c0: 59a6 8b3d 6d56 983d 9e01 8fbb 6856 033d
000000d0: a0b2 403b 8410 793b b5b7 81bb 54f4 11bd
000000e0: d568 abbc 0fc2 b3bc 5266 7b3d bd84 e63c
000000f0: cf05 063e 051c 04bd f9b4 d3bd 94be 06be
00000100: e749 513c 549f a2bc c4aa 22bd 0fdd d3ba
00000110: be1c 59bd e322 dc3b dc0f a83b 5a10 96bd
00000120: d09e bdbb 9350 603d 1767 173d 73b5 a9bd
00000130: bd3f 38bd c7e0 883d 2144 0bbb 4050 06be
00000140: 7a94 1fbd 088a 873c d10d 0cbd 297f ec3b
00000150: 8ec0 9fbc 0f70 2f3d 2ae6 a13c 6517 bcbd
00000160: ed5f ab3d d33d a5bb 0db3 9c3c cf74 60bc
00000170: e834 c73d 0902 9fbd c480 c1bd edaa 30bd
00000180: c8eb 71bb 52fd 1f3c 48c7 da3d 80e6 37bc
00000190: 98e0 f7bc 2d0c 803c 7707 9d3d 4d79 60bc
000001a0: 713d 91bb 02e9 98bd 3b37 89bd c4eb 4ebb
000001b0: 8ff0 2a3d b8d4 013e 0dd8 e83d 2d29 9fbd
000001c0: e5b4 a6ba 07b8 7a3d 27cb babc 3a79 5abc
000001d0: 6764 42bd 7dd7 af3d c074 173d 5ce4 573d
000001e0: 287f 5cbc 30a3 efbc 0ed0 373c 5a16 5a3d
000001f0: e97a 80be 6b92 9ebd a1e7 e93c d527 4dbd
00000200: a81e 83bc 2de9 3d3d f511 f63c 89b3 e03c
00000210: 96fc 90bc 3cc2 62bd d21f 0abd 5c3d 2d3d
00000220: d6fe 73bc 40f1 1ebd c025 7d3c 636d e9bc
00000230: 5249 eebd 5ead 563d 0441 71bc daf9 ae3d
00000240: 0548 123c 76c0 73bd 4047 be3d 6bb9 d73c
00000250: 494e 3abc def1 3fbc 2f27 f73d 94e5 05bd
00000260: 5c78 c1bd 2fac 6e3a 6ec3 f3bc 82a0 1cbd
00000270: 8e88 b9bd 187b 933b 8221 03bd 3221 99bc
00000280: 4b5c f63c b975 8abc b40f 123d c356 ba3c
00000290: c7a1 623c 3c7e f23c ae96 ee3c fdd3 60bc
000002a0: 2db3 263c fa68 cabd d377 7139 7518 80bd
000002b0: 9ab0 b53d 41df 48be 431e 8fbd 48da d3bd
000002c0: 216f 843d 0e24 9a3d 09c9 bf3c 97ab 39bd
000002d0: 1d53 d23c 5d50 2dbc aefc 9c3c 74a2 b7bd
000002e0: 6fa8 e73d 8619 b33d 3e77 a73d 9e8c ddbd
000002f0: 23ca 69bd a411 4bbe 7ac1 80be a7ca 0cbe
00000300: 569f 723d 1865 1c3d 2e60 ae3a 7038 bb3b
00000310: 8ed1 81bc c652 843c f6e6 5e3c 87e3 69bc
00000320: 83f4 ffbc 1f9b 9ebc 5418 83bd fe0c 70bd
00000330: bc3e bbbd e2a9 023d cf39 6c3d a257 5f3d
00000340: 1a3d 3b3e 5798 963d 1508 a6ba 2258 b3bb
00000350: 2c6a ae3d f503 53bd 65cc 46bd dcfa 6d39
00000360: 2917 e2bb 41f5 3b3b d0fd 91bd 8f58 41be
00000370: f7ae e23d b7c7 633d 6e22 6bbe 5d9a 49be
00000380: a4cd 203d b6b5 84bd 5de3 953d 81c8 06bd
00000390: 4b4d 0a3c cdeb 87bc f021 353d 601d 55bd
000003a0: 957a 17bd 227b bf3c 50f9 17bc 09ad a3bd
000003b0: bcea 5f3c 0357 7dbd 3646 dcbd 4890 c0bd
000003c0: 5263 a83c 748b c03c 9886 3fbc c3b2 e03d
000003d0: a844 3dbd e7b4 f7bc ae65 5fbd edbc 1e3d
000003e0: e5ff 74bd 0b37 88bb 0a0d 8abd 56bc 5dbe
000003f0: fa7f 32be d402 3b3d 4d30 edbd a729 3fbe
-0.038257714 -0.014615658 0.16532612 0.032760255 -0.0026642059 -0.03695665 -0.003941069 0.01010248
-0.09264811 -0.08388405 -0.01883509 -0.025476411 0.08325224 0.11032934 0.05226508 -0.013264001
-0.057973247 -0.042225167 0.06666064 0.110613145 -0.029795181 -0.031123381 0.033527046 0.06604839
0.038071997 -0.012125235 -0.021460226 0.086059324 -0.12593825 -0.03758725 -0.024989834 0.0071006184
-0.08139365 0.0054969257 0.039181735 0.09284465 -0.060871877 -0.0543951 -0.026708769 0.041050337
0.006182428 0.0006902469 0.059030674 -0.04702507 -0.013843797 0.074900635 0.082028754 0.038919166
0.06818838 0.074383594 -0.0043642065 0.032064825 0.0029403344 0.003800423 -0.003958667 -0.0356334
-0.020924011 -0.02194312 0.061376877 0.028139466 0.13088153 -0.032253284 -0.10337252 -0.13158637
0.012773967 -0.019851364 -0.039713636 -0.0016163903 -0.053005926 0.006718026 0.0051288437 -0.073273376
-0.005786754 0.05476434 0.03696355 -0.08286562 -0.04498266 0.06683498 -0.0021250325 -0.1311655
-0.038959958 0.01654531 -0.034192864 0.007217307 -0.019500997 0.042831477 0.019763071 -0.0918415
0.08367906 -0.0050427704 0.019128347 -0.013699724 0.09726888 -0.0776406 -0.09448388 -0.043131758
-0.0036914218 0.009764986 0.10682541 -0.011224389 -0.030258462 0.015630806 0.076674394 -0.013700795
-0.004432373 -0.07466318 -0.066999875 -0.0031573633 0.04173332 0.12678802 0.113693334 -0.077715255
-0.0012718706 0.06121066 -0.022801949 -0.013334567 -0.047459032 0.08586023 0.036976576 0.052708015
-0.013458051 -0.029252619 0.011219038 0.053243972 -0.25093773 -0.07742771 0.028552832 -0.050086815
-0.016005829 0.046364952 0.03003786 0.027429359 -0.017698567 -0.055361018 -0.033721752 0.042294845
-0.014892301 -0.038804293 0.015450895 -0.028494542 -0.116350785 0.05241143 -0.014724974 0.08543749
0.008928304 -0.059509717 0.092909336 0.026333531 -0.011371204 -0.0117153805 0.120680206 -0.032689646
-0.09446785 0.0009104637 -0.029756274 -0.03823901 -0.09059249 0.004500758 -0.032014377 -0.018692587
0.030073306 -0.016901838 0.035659507 0.02274645 0.013832516 0.029601209 0.029124584 -0.013722417
0.010174555 -0.09883304 0.00023028189 -0.06254665 0.08871575 -0.19616415 -0.06988194 -0.10344368
0.06466509 0.07526408 0.02341129 -0.045329656 0.025674397 -0.010578242 0.019163456 -0.08966532
0.11311423 0.087451026 0.081770405 -0.10817836 -0.05707754 -0.19830948 -0.2514761 -0.1374918
0.059233986 0.038182348 0.001330381 0.005713515 -0.015846994 0.01615275 0.01360487 -0.014275438
-0.031244522 -0.019361077 -0.064011246 -0.05860614 -0.09142825 0.031900294 0.057672318 0.054526933
0.18285027 0.07353275 -0.0012667204 -0.0054731527 0.085163444 -0.051517446 -0.04853477 0.00022695534
-0.0068997336 0.0028680118 -0.07128489 -0.18881439 0.11068528 0.055610385 -0.22962353 -0.19687791
0.039258614 -0.06479971 0.07318757 -0.03290606 0.00844128 -0.01659193 0.04422182 -0.052029967
-0.036982138 0.023374144 -0.009275749 -0.07991988 0.013666805 -0.06185056 -0.10755579 -0.094025195
0.020555172 0.023503996 -0.0116898045 0.10971596 -0.046208054 -0.030237628 -0.05454033 0.038754392
-0.059814353 -0.0041569523 -0.06740768 -0.21653876 -0.17431632 0.045656994 -0.11581478 -0.18668233

fc1.bias f4 [50]
00000000: ca16 2d3e 6ce8 263e 0488 3c3c c875 603d
00000010: 17f7 853d 20fd cf3b db6e 9e3d dbbc 5e3c
00000020: 570a 33bc 73fa 203c d5a6 ac3d 7ff2 bcbc
00000030: c9f8 5d3e e315 da3d d68d 043e 946c 6ebd
00000040: 6da7 f33c 6942 0a3e 77e9 073e 772d 4e3e
00000050: 162c 363e 89d9 913d cc1f c1bb ebc9 df3d
00000060: a82e a4bc 11ae f83d 2775 e43d fcea 423e
00000070: a333 883d 1709 febc 3bf1 82bc 22fd dc3d
00000080: bd58 b6bc bf87 603c ab1c 013e af4d 213e
00000090: ca2c a6bc 71e0 113e 677e cf3d fc1f bcbd
000000a0: 54ea 103e ae90 cf3c 74e3 36bd 5b38 0d3e
000000b0: cedc e53d 55af 063e 223b 463e a38a 823d
000000c0: 20e5 46bc afd3 b03c
0.16903225 0.162996 0.011507038 0.054799825 0.06541269 0.0063473135 0.07735988 0.013594831
-0.010927758 0.009825337 0.08430258 -0.02306485 0.21676935 0.10648706 0.12944731 -0.058209017
0.02974292 0.13501896 0.13272654 0.20134531 0.17790255 0.0712157 -0.005893683 0.10927185
-0.020041779 0.121425755 0.111551575 0.19034952 0.06650474 -0.031010194 -0.015984168 0.10790469
-0.02225911 0.013704239 0.12608592 0.1575229 -0.020285029 0.14245774 0.10131531 -0.09185788
0.14151889 0.025337543 -0.04465051 0.13791029 0.11223756 0.13152821 0.19358495 0.06374099
-0.012139589 0.021585314

fc2.weight f4 [10, 50]
00000000: 4bfa a6be b87d 63be c35e 72be 64e0 8abe
00000010: 0d5d 03be 4647 fc3d e99f 973d ad08 90be
00000020: 8fe7 9dbd 58e0 29be d30d 673e 9324 7dbd
00000030: 08f5 ab3e 6831 be3e 3655 833e c05e 28be
00000040: 0818 6c3e 4793 9dbe 41f9 39be 72ba 93be
00000050: 5fbd 67be 405d 94be e870 7dbe f6f6 b6be
00000060: 7931 9ebd 3172 19be a2bc 1ebe a8b5 64be
00000070: d9fd 713e 34bf 19be 5a13 58be baf0 943e
00000080: 9602 993c c8f1 f2ba 36ef 3d3d d652 18be
00000090: a8df 3ebe 6b9c 83be b125 873e cc22 793d
000000a0: 2b7e 643e b96e a23e f3aa 19be f5b6 28be
000000b0: f220 17bc 2091 633e 332d 693e fc58 6e3e
000000c0: b6f2 84be e2a6 6a3e 3bf7 8c3e e01c 483e
000000d0: 366b 21be e6e6 363e d805 e0bd 9e57 5abe
000000e0: bf63 6cbe 4c52 f13d 3a58 43be 282b 4dbd
000000f0: 20e5 4dbe b621 97be 326a 913e aaee 30be
00000100: 71b1 aabe 4443 47be 0f33 8dbe 992a 553e
00000110: 10d5 783e e297 663e 4e7b 7a3e eb6b 61be
00000120: 425f 9fbe 0d18 843e 8272 6a3d 7e25 c23e
00000130: b649 8e3e a4f1 623e 6c11 75be e89e 61be
00000140: 0abd 6c3d abc4 46be 6ed0 e4bd d752 9bbe
00000150: 0310 37bd 1361 4e3e 63b8 e4bd 008e 903e
00000160: 3650 09be 14b1 49be 5e1c 2b3e 3704 2bbe
00000170: f480 63be 7f0e 9d3e c464 35be bc17 223e
00000180: f82f 373e e95b 63be af32 1bbe f584 a4be
00000190: b27e 1cbe 856f fe3c e0f4 3b3e 97ea 3e3e
000001a0: e76a 1dbd ae39 c13d 2311 713e 22b8 2d3e
000001b0: ba80 463e fdf1 873e 3c70 983d 9e59 f13d
000001c0: 9a35 56be 6ca8 41be 17e3 cfbc 6b4d 6abe
000001d0: f363 3fbe da84 4e3e 6bd2 0dbe 2eb6 54be
000001e0: e51e 98bd 491c fabd 3853 6cbe 32a9 663e
000001f0: 4d41 94bd 2774 b73e 0044 2fbe 6fdd 0abe
00000200: 2bff dbbb cc28 54bd 0c0d 563e 54ff b3bd
00000210: f698 19be 3978 91be 4366 673e 8043 61be
00000220: 5ba5 763e 7635 803e 08ee 83be 58cf 18bd
00000230: 8fa2 993d c01f 983e 29da 983e 949b 1fbe
00000240: 2be9 a6bd ebf9 0a3e 9be4 543e e258 333e
00000250: 38a8 2f3e 0603 173e 8890 b0bd 56ce 37be
00000260: 1173 5e3e e3ed 523e 2eee a9bd 2a1d 983d
00000270: fa65 5abe 0506 553e 5bf8 d2bd 1caf 3a3b
00000280: 5f08 41bd f328 f5bd 6b83 87be fd40 0cbe
00000290: 4a3c a2bd 3523 603e 4d02 3dbd e7cc 613e
000002a0: b5c6 413e ee70 2ebe bab1 50be 3094 2cbe
000002b0: b747 563e 557c bebd 147f a03e 1c1e 4ebe
000002c0: 2b04 94be 256c 7d3e 2229 0ebe 4a64 663e
000002d0: a286 643e 7f73 903e e036 773e ab99 9abd
000002e0: 5317 36be 5e22 83be a85d 4f3e 9a9e 883e
000002f0: 7102 0bbe de73 903e c78b 11be 6c2b b1bd
00000300: d2d6 56bd 9dea 05be 4ddd 81bc 3823 ba3d
00000310: 4b84 24be d1c5 55be 0ae2 483e dd46 533e
00000320: 33dc a93e 6fbe 363e a781 4f3e 4cf4 64be
00000330: e07f 613e f74d a3be 7972 963e a3e5 433e
00000340: 441c 2c3e cc71 863d 99c2 b03e e201 ac3e
00000350: 79d4 24be 533c 92bd f6a0 8fbe 9908 4abe
00000360: c7f9 7abe fac8 20be ba47 823e 41c5 553e
00000370: fc50 823e ce65 aa3e f556 36bc 20ab b6bd
00000380: dafe 10be 4040 133c 38b8 85bc f45e 3f3e
00000390: 74fd 73be f583 56be c4e8 39be 876c b0be
000003a0: e10d f0bd 29e1 953e f34d 8c3e 5fec 773e
000003b0: 48cd babd 091d af39 bad0 24be b53c d6bd
000003c0: 839a 66be 7b5c d13c 8b41 a8bb 95eb 3a3e
000003d0: 5ba9 983e 0e9d 16bc a903 dc3d 0030 5e3e
000003e0: 8dc1 b1be 66eb 78be 203c 3ebe 687e 373e
000003f0: 2ed2 07be b45e 76be 8228 793e a8e5 bbbe
-0.32612833 -0.22215927 -0.23668961 -0.2712432 -0.12828465 0.12318282 0.07403547 -0.2813162
-0.07710182 -0.16589487 0.22563867 -0.061802458 0.33585382 0.3714707 0.25650948 -0.16442394
0.23056042 -0.30776426 -0.18161489 -0.28853184 -0.22630833 -0.28977394 -0.24750102 -0.3573529
-0.0772428 -0.14984967 -0.15501645 -0.22334921 0.23631991 -0.15014344 -0.21101132 0.2908991
0.01867799 -0.0018535191 0.046370707 -0.1487535 -0.18640006 -0.25705275 0.26395944 0.0608242
0.22313754 0.317251 -0.15006618 -0.16476043 -0.009224163 0.2222333 0.22771148 0.23276132
-0.25966424 0.22915223 0.27532372 0.19542265 -0.15763554 0.17861518 -0.109386146 -0.21322486
-0.23084925 0.11783275 -0.19076625 -0.050089985 -0.20106936 -0.29517907 0.28401333 -0.17278543
-0.33338502 -0.19459254 -0.27578017 0.20817031 0.24300027 0.22518876 0.244611 -0.22013824
-0.31127363 0.257996 0.05723811 0.3791923 0.27790612 0.22162491 -0.23932427 -0.22033274
0.05779747 -0.1941096 -0.11172567 -0.3033664 -0.044693004 0.20154218 -0.111679815 0.28233337
-0.13409504 -0.19696456 0.1671004 -0.16700827 -0.2221716 0.30675122 -0.1771422 0.15829366
0.17889392 -0.2220303 -0.15156053 -0.32132688 -0.15282705 0.031059036 0.18355131 0.18644176
-0.03843203 0.0943483 0.23541693 0.16964772 0.19385043 0.2655181 0.07443282 0.11784671
-0.20918885 -0.18911904 -0.02537684 -0.22881095 -0.18690471 0.20167866 -0.138498 -0.20772621
-0.07427768 -0.12212426 -0.2307862 0.2252548 -0.07239018 0.35830805 -0.17115784 -0.13561033
-0.006713768 -0.05179672 0.20903414 -0.08788934 -0.14999756 -0.28412035 0.22597603 -0.21998405
0.24086516 0.25040787 -0.2576754 -0.037307113 0.07501709 0.29711723 0.29853943 -0.15586692
-0.08149942 0.13571899 0.20790331 0.17514375 0.17154014 0.14747247 -0.08621317 -0.17949805
0.21723582 0.20598559 -0.08297382 0.074274376 -0.21327963 0.20803078 -0.10301276 0.002848572
-0.047127124 -0.11970701 -0.2646745 -0.13696666 -0.079216555 0.2188843 -0.046144772 0.2205082
0.18923457 -0.17035267 -0.20380297 -0.16853404 0.20925795 -0.09301058 0.31346953 -0.20128673
-0.2890943 0.24748285 -0.13882878 0.22499195 0.22316983 0.28213117 0.24142027 -0.07548841
-0.17782335 -0.25612158 0.20250571 0.26683503 -0.1357515 0.282134 -0.14213477 -0.0865086
-0.052450962 -0.13077779 -0.015852595 0.09088749 -0.16066091 -0.20876242 0.19617477 0.20632501
0.3317581 0.17846082 0.20264302 -0.22358817 0.22021437 -0.3189542 0.2938421 0.19130568
0.16807657 0.06564674 0.34523466 0.33595186 -0.16096677 -0.07140412 -0.2805249 -0.19729842
-0.24509345 -0.15701666 0.25445348 0.20876028 0.2545241 0.33280796 -0.011129131 -0.08919358
-0.14159718 0.008987486 -0.016323194 0.18688565 -0.23827153 -0.20948775 -0.181552 -0.344578
-0.11721397 0.29273346 0.2740322 0.24211262 -0.091211855 0.00033400234 -0.16095248 -0.10460798
-0.22519879 0.025556793 -0.0051347665 0.1825393 0.29816708 -0.009192718 0.107428856 0.21697998
-0.3471798 -0.24308547 -0.18577623 0.17919314 -0.13263771 -0.24059564 0.24331859 -0.3669865

fc2.bias f4 [10]
00000000: 6a46 213f 289f 063f 2ce8 6ebe acac b2be
00000010: 1b8c 67be 4516 fdbd 4a70 78be fd75 0fbd
00000020: 4c47 cb3e 09c4 8abe
0.6299807 0.52586603 -0.23330754 -0.34897363 -0.2261204 -0.12357763 -0.24261585 -0.03502463
0.39702833 -0.27102688
